models/keypoint_classifier_right_handed_27th_Jan.tflite (tflite, 7336 bytes, 4 tensors)

arith.constant f4 [40]
-0.03310501 0.13964213 0.23335037 -0.015374689 0.115131095 0.094070174 -0.19106016 0.10042497
-0.0673418 -0.0036714019 -0.14390685 0.0077470625 -0.13719794 -0.12534095 0.02186139 0.07715411
0.067643546 -0.004296912 -0.13618919 0.2011466 -0.15024872 -0.094726525 0.017768877 -0.06144343
0.005112213 0.05350089 -0.03027746 -0.061683998 -0.09697818 -0.08729995 -0.05981307 -0.13791907
0.049955487 0.051290084 -0.038273584 -0.05609934 0.104601085 -0.079608485 -0.06397271 -0.086363696
00000000: 1e99 07bd 59fe 0e3e 66f3 6e3e 1fe6 7bbc
00000010: dac9 eb3d dda7 c03d 46a5 43be 9bab cd3d
00000020: 7fea 89bd e79b 70bb 515c 13be 12db fd3b
00000030: 9e7d 0cbe 6159 00be a816 b33c f902 9e3d
00000040: b388 8a3d 1ccd 8cbb 2e75 0bbe 60f9 4d3e
00000050: cdda 19be fbff c1bd 0990 913c 1bac 7bbd
00000060: 5a84 a73b c023 5b3d 7008 f8bc 5ca8 7cbd
00000070: 7f9c c6bd 51ca b2bd 8dfe 74bd a83a 0dbe
00000080: 209e 4c3d 8d15 523d c3c4 1cbd 6cc8 65bd
00000090: 1839 d63d c609 a3bd 2004 83bd 73df b0bd

arith.constant1 f4 [26]
0.7023731 4.078387 1.7057887 3.014482 -1.5494841 2.1846442 -1.7015979 -0.8502469
1.3018012 -1.9793684 0.43051568 2.389698 0.31479383 0.63197654 2.7773368 6.3114624
0.8383722 4.226062 2.1654541 -2.4605799 7.265332 1.7121758 1.6327618 0.8188614
-0.1821555 4.218471
00000000: b9ce 333f 2582 8240 4957 da3f 46ed 4040
00000010: 7f55 c6bf 36d1 0b40 f6cd d9bf c8a9 59bf
00000020: 6ca1 a63f f25b fdbf 8d6c dc3e d0f0 1840
00000030: a82c a13e 37c9 213f e3bf 3140 80f7 c940
00000040: 8f9f 563f e63b 8740 cd96 0a40 247a 1dc0
00000050: 9a7d e840 9428 db3f 57fe d03f e7a0 513f
00000060: f986 3abe b7fd 8640

tfl.pseudo_qconst i1 [26, 40]
44 -52 -34 76 -90 55 -86 -22
-38 -11 -32 -24 -127 -5 -43 93
26 -64 -41 -53 14 34 -41 26
-21 74 -58 81 8 20 25 -66
-32 -27 35 33 -93 26 -54 -58
7 5 -72 22 -74 -63 -52 -34
30 -15 80 -71 -127 42 -70 -17
-37 14 23 24 -13 38 46 -21
-51 -44 -40 20 -39 -21 -21 -63
-47 -43 21 17 3 -17 -50 -76
-17 12 50 -10 -96 -76 -8 51
24 22 45 102 100 -45 -27 -125
-46 -59 127 72 1 3 -6 109
-37 -22 -50 -96 79 -111 -20 -77
-73 26 -20 24 -37 3 56 -77
13 -24 -44 -14 -3 -36 -17 -5
-18 -21 56 53 95 -21 61 -76
-24 -52 28 -51 -26 4 15 -73
-67 -4 -46 28 9 28 -69 127
34 -52 -45 -57 -56 -31 -5 5
6 -29 -66 90 -108 -1 30 -38
47 20 59 -65 43 -102 105 -51
110 -33 89 83 94 -25 25 -87
-27 49 94 15 -2 127 -36 -115
-29 5 15 92 26 -28 93 56
-24 -4 8 0 -76 -27 97 36
40 -30 61 -116 -127 -76 65 32
3 -3 0 -85 34 45 33 -29
76 -7 39 -61 15 4 -44 37
-37 -30 -11 -70 -77 -19 -61 -45
35 20 13 -62 -73 -21 89 4
-24 54 23 -63 -127 -92 -20 19
00000000: 2ccc de4c a637 aaea daf5 e0e8 81fb d55d
00000010: 1ac0 d7cb 0e22 d71a eb4a c651 0814 19be
00000020: e0e5 2321 a31a cac6 0705 b816 b6c1 ccde
00000030: 1ef1 50b9 812a baef db0e 1718 f326 2eeb
00000040: cdd4 d814 d9eb ebc1 d1d5 1511 03ef ceb4
00000050: ef0c 32f6 a0b4 f833 1816 2d66 64d3 e583
00000060: d2c5 7f48 0103 fa6d dbea cea0 4f91 ecb3
00000070: b71a ec18 db03 38b3 0de8 d4f2 fddc effb
00000080: eeeb 3835 5feb 3db4 e8cc 1ccd e604 0fb7
00000090: bdfc d21c 091c bb7f 22cc d3c7 c8e1 fb05
000000a0: 06e3 be5a 94ff 1eda 2f14 3bbf 2b9a 69cd
000000b0: 6edf 5953 5ee7 19a9 e531 5e0f fe7f dc8d
000000c0: e305 0f5c 1ae4 5d38 e8fc 0800 b4e5 6124
000000d0: 28e2 3d8c 81b4 4120 03fd 00ab 222d 21e3
000000e0: 4cf9 27c3 0f04 d425 dbe2 f5ba b3ed c3d3
000000f0: 2314 0dc2 b7eb 5904 e836 17c1 81a4 ec13

sequential_1/dense_1/MatMul i1 [40, 84]
-60 106 61 17 42 -105 -118 -91
-5 -38 -22 -90 -46 -60 -29 -69
19 7 -10 32 -105 37 77 83
49 94 -52 30 43 -74 91 -71
-40 28 -27 -5 -14 -32 54 -39
-25 19 -85 -41 -55 -28 15 -28
99 -53 29 58 -8 -41 24 5
-4 -23 22 6 -97 -127 -51 57
49 -20 -28 -67 -3 -20 11 -47
-17 7 40 33 -25 29 72 111
-24 -11 -63 21 -35 -66 -36 -104
20 -66 86 -74 -68 -85 49 57
-26 -49 -114 20 -13 -95 51 73
96 -60 100 72 36 14 9 21
-61 -57 21 38 -57 58 -127 125
-75 40 105 109 1 61 112 9
-48 2 67 91 -97 68 -60 9
54 -20 -123 -42 30 -10 50 75
-69 50 59 -20 68 -67 72 -29
-35 0 -42 -64 39 24 14 -95
102 77 -101 -19 22 11 -49 82
-119 75 61 108 87 -79 46 -24
26 -2 34 61 -3 88 -28 -22
13 -4 -36 -46 42 -58 -103 -97
-63 -50 -79 60 -39 -33 -63 34
63 15 -63 -23 80 127 108 66
-1 -22 112 69 -3 93 -25 -10
6 -32 39 74 -75 -37 83 40
92 -23 -90 -26 -62 102 -57 -90
-50 -67 7 25 62 -46 16 38
48 -53 -26 66 -21 -7 -24 102
-26 29 68 -43 -75 46 -6 68
00000000: c46a 3d11 2a97 8aa5 fbda eaa6 d2c4 e3bb
00000010: 1307 f620 9725 4d53 315e cc1e 2bb6 5bb9
00000020: d81c e5fb f2e0 36d9 e713 abd7 c9e4 0fe4
00000030: 63cb 1d3a f8d7 1805 fce9 1606 9f81 cd39
00000040: 31ec e4bd fdec 0bd1 ef07 2821 e71d 486f
00000050: e8f5 c115 ddbe dc98 14be 56b6 bcab 3139
00000060: e6cf 8e14 f3a1 3349 60c4 6448 240e 0915
00000070: c3c7 1526 c73a 817d b528 696d 013d 7009
00000080: d002 435b 9f44 c409 36ec 85d6 1ef6 324b
00000090: bb32 3bec 44bd 48e3 dd00 d6c0 2718 0ea1
000000a0: 664d 9bed 160b cf52 894b 3d6c 57b1 2ee8
000000b0: 1afe 223d fd58 e4ea 0dfc dcd2 2ac6 999f
000000c0: c1ce b13c d9df c122 3f0f c1e9 507f 6c42
000000d0: ffea 7045 fd5d e7f6 06e0 274a b5db 5328
000000e0: 5ce9 a6e6 c266 c7a6 cebd 0719 3ed2 1026
000000f0: 30cb e642 ebf9 e866 e61d 44d5 b52e fa44
