models/keypoint_classifier_25th_Feb_Noisy_Data.tflite (tflite, 9144 bytes, 4 tensors)

arith.constant f4 [26, 35]
00000000: 90bf b940 d88b db3f ad07 bdc0 7632 c7c0
00000010: 67c2 1bbe f061 bcbf 185b 5fc0 fb0f 923e
00000020: 44be 0fc1 6186 24c0 eb80 74c0 ac82 1041
00000030: 72a6 a040 1eab fc40 8ec8 39c0 9d1e 7ec0
00000040: 4403 6dc0 22d8 0dc1 d4bf 5ebf 315d 9ec0
00000050: 68db b840 a0c6 dc40 8efb 9640 70aa 5e40
00000060: 9972 ffbf a409 debf 777d c9bf 9341 0c40
00000070: f4b4 8fc0 4bf4 58c0 3005 99c0 405c d640
00000080: 99e3 ab40 bed8 c2c0 8a6e 79c0 134a c2c0
00000090: 786a f2bf 054b 4bbe 3a5b 3bc0 223b a240
000000a0: 4af7 bb40 0a1b 46c0 ae4d 1141 12bd e8c0
000000b0: cbba efc0 9864 16c0 ab66 9ec0 23cf 803f
000000c0: 69e8 803f 39b7 bd3f bfad 5240 5a73 41c0
000000d0: b532 c13f e24c 6cc0 ddc6 2ec0 4208 b240
000000e0: c617 da40 7b2d a3c0 b386 e43f 89c0 39c0
000000f0: 1108 563f d059 df40 de55 8840 ee24 7640
00000100: 607d 8540 b7aa 98bf 96b9 a340 ed42 7fc0
00000110: a2fa e6c0 697a 81c0 eb44 91c0 4d3f c7bf
00000120: 9874 5040 dc34 8bc0 9430 d7c0 41d6 d7be
00000130: 27a1 9440 29e5 2c41 3647 c240 c5f3 cd40
00000140: 675a 7240 a8e1 b1c0 d306 13c0 6cfc cfc0
00000150: eceb 29c0 ede8 853f 6b2d 9440 7d19 ad40
00000160: 013d a840 4193 f8bf 6985 6e40 0f14 8f3e
00000170: be93 b5c0 857f 7d40 0ddc 5d40 dd07 8340
00000180: e439 92be e21c a1bf 42b6 99c0 3d74 fc3f
00000190: 5782 b5c0 269d a3bf d1ac 82c0 78c9 1640
000001a0: 3124 82c0 65e3 a440 6a25 81c0 2e19 a240
000001b0: 5b39 2ec0 9847 06c1 bdb0 7cc0 6360 08c0
000001c0: b3e6 1d41 a97d 8ac0 5023 2041 1454 a040
000001d0: 95ae 34c0 93f9 6b40 f676 ab40 ce3b 98c0
000001e0: a937 3ac0 1774 8dc0 a808 9c40 e6dd 85c0
000001f0: 8185 48c0 96f2 57c0 371a ec3e 3072 70c0
00000200: 38da 63c0 fa01 a8c0 f997 c8bf fb88 8540
00000210: 374c f13f aea7 dbc0 dd9f 2640 7b9c e140
00000220: 935c d040 8c03 70c0 ee53 1cc0 c53a 3640
00000230: 9ba5 3e3f cdf0 ba3e d80e 64c0 3eb4 0141
00000240: be8f a3c0 931e a9c0 e193 07c0 102c 03c1
00000250: ee7c 1141 80ae cbc0 fa95 8240 6554 8fc0
00000260: b959 6640 63f2 96c0 c942 0fc0 329b 7fc0
00000270: a8bc f2c0 2911 1341 f700 7ec0 2c9d 65c0
00000280: 63cc df40 fe72 fec0 fc5c 12c0 d29f 96c0
00000290: bfa2 f93f e03a fabe 6494 c4c0 df90 0e40
000002a0: 1dc4 58c0 cb4c 33c0 017b e040 ed32 8dc0
000002b0: cca8 4340 e409 a5c0 3995 0640 a38b c9c0
000002c0: d1da 3ac0 05c8 ccc0 ec49 8bc0 a659 8040
000002d0: 93c0 94c0 d9dd b940 23cc b9c0 792d 2cbe
000002e0: 9e4b 06c1 b450 24c0 193f d640 fd9b 9ac0
000002f0: 571b 30be ff4d 7640 a532 c6c0 c85f 93c0
00000300: 7d2c c83f 82d3 1dc0 de10 edc0 fde7 7640
00000310: a5b3 4140 e45d 2040 d49f 05bf ab3c a7c0
00000320: f8a6 c0bf f8b4 0141 1b69 5d3e 2795 2dbe
00000330: 717d 5cc0 0b7b fbbf 7e80 01c1 576b 7ec0
00000340: f373 dfc0 c41f 5540 13f8 7b40 5e33 56c0
00000350: c080 acc0 93de 36c0 5d65 a840 a870 a0c0
00000360: b053 b83e dbae bfc0 a62d aac0 b7e2 0141
00000370: 9953 a2c0 cae3 8640 2a01 a140 db3f f540
00000380: 817c dbc0 f8da 6e40 af53 8dbf 3eb3 3f40
00000390: 2e01 c2c0 2f2f 4940 65c6 9fc0 5239 bfc0
000003a0: c253 a9c0 f4e4 fc3f 181e 5940 dc2a b240
000003b0: 3992 82c0 7d58 35c0 d649 8040 54d4 1f40
000003c0: 8eae 1cc0 ae80 99bf be7a a93f 0eeb 5cbf
000003d0: 5aaa 74c0 29f3 123f 7a16 b93f 80f0 8f3f
000003e0: 9bff 2140 ac49 3dbf b8c5 0d3f a15b 8d3e
000003f0: cda3 1440 fd53 583e a40c 01c0 c237 653f
5.804634 1.7152052 -5.907187 -6.22491 -0.15210877 -1.4717388 -3.489935 0.28527817
-8.983952 -2.5707018 -3.8203685 9.031902 5.020318 7.8958883 -2.902866 -3.9706185
-3.7033243 -8.865267 -0.87011456 -4.948876 5.776783 6.899246 4.7182074 3.4791527
-1.9956847 -1.7346692 -1.5741414 2.1915023 -4.490839 -3.3899105 -4.7818832 6.698761
5.371533 -6.088958 -3.8973718 -6.0715423 -1.8938742 -0.19852836 -2.927443 5.0697184
5.8739367 -3.0954003 9.081465 -7.27308 -7.491552 -2.3498898 -4.9500327 1.0063213
1.0070926 1.482154 3.2918546 -3.0226655 1.50936 -3.6921926 -2.7308877 5.563508
6.815402 -5.099302 1.7853607 -2.9023764 0.8360606 6.9797134 4.260482 3.846004
4.1715546 -1.1927098 5.1164045 -3.9884598 -7.218095 -4.0461926 -4.539663 -1.5566193
3.2571163 -4.3502026 -6.72468 -0.4215565 4.644672 10.805947 6.0711927 6.436007
3.7867677 -5.558796 -2.2972915 -6.499563 -2.6550245 1.0461708 4.630544 5.4093614
5.257447 -1.9419938 3.7268927 0.2794499 -5.674285 3.9609082 3.4665558 4.09471
-0.28559792 -1.2586939 -4.8034983 1.9722973 -5.6721606 -1.2782333 -4.0835958 2.3560467
-4.066918 5.152758 -4.035817 5.0655737 -2.7222507 -8.392479 -3.9482872 -2.130883
9.868823 -4.3278394 10.008621 5.0102634 -2.8231556 3.6871078 5.3582716 -4.7573004
-2.9096472 -4.420421 4.8760567 -4.183337 -3.1331484 -3.3741813 0.4611375 -3.7569695
-3.560194 -5.2502413 -1.5671378 4.1729712 1.8851384 -6.8642187 2.6035073 7.0503516
6.5113006 -3.7502165 -2.4426227 2.847337 0.74471444 0.3651184 -3.563406 8.106504
-5.1112967 -5.284982 -2.1184008 -8.198257 9.093 -6.3650513 4.0808077 -4.479052
3.5992262 -4.717088 -2.2384512 -3.9938474 -7.5855293 9.1916895 -3.968809 -3.587718
6.9936996 -7.951537 -2.2869253 -4.7070093 1.9502791 -0.48873043 -6.143114 2.2275922
-3.3869698 -2.801562 7.015015 -4.4124665 3.0571775 -5.1574574 2.1028578 -6.2982955
-2.9196055 -6.3994164 -4.3527737 4.0109434 -4.6485076 5.808331 -5.806169 -0.16814221
-8.393461 -2.5674257 6.6952024 -4.8315415 -0.1719793 3.8485105 -6.193682 -4.605442
1.5638577 -2.4660344 -7.408309 3.8579094 3.0265896 2.5057306 -0.52197003 -5.2261558
-1.5050955 8.106682 0.21622126 -0.16951428 -3.4451563 -1.9646925 -8.09387 -3.9753015
-6.982904 3.3300638 3.9370162 -3.3468852 -5.3907166 -2.8573349 5.2623734 -5.013752
0.36001348 -5.9900947 -5.3180723 8.11785 -5.072705 4.2153063 5.031392 7.664045
-6.858948 3.7321148 -1.1041163 2.995315 -6.062644 3.1435049 -4.992968 -5.975747
-5.2914743 1.9757371 3.3924618 5.567732 -4.0803494 -2.833526 4.009013 2.4973345
-2.448154 -1.1992395 1.3240583 -0.86296165 -3.8228974 0.5740228 1.4459984 1.124527
2.531226 -0.7394054 0.5537982 0.2760897 2.3224976 0.21125789 -2.0163965 0.89538205

arith.constant1 f4 [26]
00000000: 3999 b13c 6d63 d7bf acbd 90be cbb2 babf
00000010: ffb9 4440 5fc1 df40 7022 0540 108e 45c0
00000020: e833 cc3e 638b 68c0 80bb 983f f020 1bbc
00000030: 5b6b ba40 6264 f040 b516 74c0 3979 4240
00000040: 532c 1340 b49a 1640 bc26 5340 12be f03f
00000050: 5a6c 6340 67d1 1a40 75d3 c140 89bf dd40
00000060: 1493 58c0 6405 a540
0.021679508 -1.6827217 -0.28269708 -1.4585813 3.0738523 6.992355 2.080227 -3.0867958
0.3988335 -3.6335075 1.193222 -0.009468302 5.825605 7.5122538 -3.813886 3.0386488
2.2995803 2.3531923 3.2992392 1.8808005 3.5534883 2.419031 6.0570626 6.9296308
-3.383977 5.156908

arith.constant2 f4 [35]
00000000: f97c b8bd d1f6 043d d1f9 143e a9da f43c
00000010: ed96 1cbe 4d28 3dbd e480 3fbe 638a a1bd
00000020: ebe8 ae3d 7b7b 2bbd 5f4e c83c 62fc 2e3d
00000030: 83cc b3bc 26f8 9d3c b106 ac3c 8c51 ff3d
00000040: 7ec4 263d 2aea 9ebc f7eb a1bc 5625 e1bd
00000050: 991b 063d 02e7 523d 80ca 903c 18c9 26bd
00000060: f1d5 a83c 1ebf 83be 1687 87bc 7627 63bd
00000070: 2b15 c7bd eafe 6bbc 4d73 79bc 39dd ddbd
00000080: b292 913e b0e7 5b3e e516 773d
-0.09008212 0.032461945 0.14548422 0.029889422 -0.15291949 -0.046181012 -0.18701512 -0.07887723
0.08540519 -0.041865807 0.024451433 0.04272116 -0.021948105 0.019283365 0.020999284 0.12466726
0.040714733 -0.019398768 -0.019765837 -0.109934494 0.032741163 0.051489837 0.017674685 -0.04071912
0.020609828 -0.25731748 -0.016543906 -0.055457555 -0.09720834 -0.014404038 -0.015225244 -0.108332105
0.28432232 0.214751 0.06032457

sequential_10_1/dense_20_1/MatMul i1 [35, 84]
00000000: 1dd5 2ede caa7 1b34 f3ca 2cb2 d2ef 1de1
00000010: 3bf9 f2e0 cb32 033e 0614 16be 1d0e c2f9
00000020: 0a2e 25ed 0118 ba37 11cc 45d6 b7f1 15f0
00000030: e0e2 1422 1efd 49ae f2f6 d80b 3531 f835
00000040: eed5 8125 22da 4827 c6e5 0143 edfc 25fa
00000050: f304 21c8 454a fe0d 0337 feec 2e03 d82e
00000060: d31e 3db7 1ad3 eda8 f1e0 0b19 ddef cc81
00000070: 1c43 15f4 bd28 c31c 1a04 2bb7 f3c9 33c4
00000080: bad5 b59c c5ba e0d8 9412 4597 3e42 b545
00000090: 3442 2a35 0330 0d60 11b4 22f1 a43c 29ec
000000a0: 3827 ce4e 2e7f 0019 cae9 2713 ece7 ec41
000000b0: 3f3e f925 daff 1681 d8c7 db2c 32dc 4bf7
000000c0: 0427 c495 3223 ed54 d0aa fac8 093d dc34
000000d0: 1311 c90a 1fe8 cde2 fad3 0b0c 0111 ba1c
000000e0: 0e08 39e1 ca1d c437 1462 042f 212a e71b
000000f0: f116 3389 a6ba 38ff f89a 7ad1 1a47 08e5
29 -43 46 -34 -54 -89 27 52
-13 -54 44 -78 -46 -17 29 -31
59 -7 -14 -32 -53 50 3 62
6 20 22 -66 29 14 -62 -7
10 46 37 -19 1 24 -70 55
17 -52 69 -42 -73 -15 21 -16
-32 -30 20 34 30 -3 73 -82
-14 -10 -40 11 53 49 -8 53
-18 -43 -127 37 34 -38 72 39
-58 -27 1 67 -19 -4 37 -6
-13 4 33 -56 69 74 -2 13
3 55 -2 -20 46 3 -40 46
-45 30 61 -73 26 -45 -19 -88
-15 -32 11 25 -35 -17 -52 -127
28 67 21 -12 -67 40 -61 28
26 4 43 -73 -13 -55 51 -60
-70 -43 -75 -100 -59 -70 -32 -40
-108 18 69 -105 62 66 -75 69
52 66 42 53 3 48 13 96
17 -76 34 -15 -92 60 41 -20
56 39 -50 78 46 127 0 25
-54 -23 39 19 -20 -25 -20 65
63 62 -7 37 -38 -1 22 -127
-40 -57 -37 44 50 -36 75 -9
4 39 -60 -107 50 35 -19 84
-48 -86 -6 -56 9 61 -36 52
19 17 -55 10 31 -24 -51 -30
-6 -45 11 12 1 17 -70 28
14 8 57 -31 -54 29 -60 55
20 98 4 47 33 42 -25 27
-15 22 51 -119 -90 -70 56 -1
-8 -102 122 -47 26 71 8 -27
