models/keypoint_classifier_27th_Jan(19th Jan + E).tflite (tflite, 7336 bytes, 4 tensors)

arith.constant f4 [40]
00000000: 6fdc d7bd e23c b83c 6326 9dbd f51e f6bd
00000010: 9be6 4bbd 4d9a 833d 8ab7 8fbc e5b3 debc
00000020: dc21 07be 1a1b 81bd 8d48 a0bd 24e2 b9bd
00000030: 59fd 063e eecf 34be 2250 a0bd f50e 6ebd
00000040: d05a e0bd 6f4d fdbd 050f d23c 19fb 85bd
00000050: 0508 8fbd f374 a33c f4c3 29bd 2a31 9c3d
00000060: 07d5 d7bb 3533 67bc eca2 063d 4ce3 59bd
00000070: 6444 dfbd 7b6a 94bd cc67 9c3d c2da 3cbe
00000080: f6bb 88bd 9054 c3bc 1b5c 6ebc aa5c 87bd
00000090: d9ff 3f3c cf11 54be da32 0c3d 0db0 f83c
-0.10540091 0.022489969 -0.07673337 -0.12017623 -0.04978047 0.06425915 -0.017543573 -0.02718539
-0.1319651 -0.06303997 -0.07826338 -0.09076336 0.13182582 -0.17657444 -0.07827784 -0.058119733
-0.10954821 -0.12368285 0.025641927 -0.06542034 -0.069839515 0.019953227 -0.04144664 0.07626565
-0.006586674 -0.01411133 0.03287022 -0.053195283 -0.10901716 -0.07246872 0.07636985 -0.18442824
-0.06676476 -0.023844033 -0.014548327 -0.06609471 0.011718714 -0.20709918 0.034228183 0.030357385

arith.constant1 f4 [26]
00000000: 4c68 1740 acad 2d40 14b3 22c0 c401 a3c0
00000010: dd04 97bf 51a2 a53f f4d5 5841 cee3 8dbf
00000020: 66da d140 41f4 a5bf 3c22 8140 2473 0340
00000030: 270f 52c0 3d56 6fc0 5706 1541 7156 d93f
00000040: dda0 31c0 1c19 3440 9506 7a40 8dc8 7540
00000050: 8f4f 9440 1fac aa3f 15c7 df40 047f e4bf
00000060: 13c0 bebf 25f7 ae40
2.3657408 2.713725 -2.54218 -5.0939655 -1.1798359 1.294016 13.552235 -1.1085145
6.55791 -1.2965165 4.035429 2.0539026 -3.2821748 -3.7396386 9.314048 1.6979505
-2.7754433 2.8140326 3.9066517 3.8403656 4.6347117 1.3333777 6.993052 -1.7851262
-1.4902366 5.467669

tfl.pseudo_qconst i1 [26, 40]
00000000: 231e 0704 01ff fec0 fd07 8103 9168 f105
00000010: d6ef 0dba f2c2 d7fb fc0c fefd 7cfe cdd6
00000020: 2af8 f204 1d59 0505 0b10 0301 04fe 02e5
00000030: 04fc 4ef9 9e40 fe06 d4e7 eafa 060b a7fb
00000040: 04bc f9f9 c4fa f91a 81fb 1664 1d98 0102
00000050: 5dde fd00 fb05 02c5 0e02 2ffa 389b f109
00000060: b14e eddb 0d14 b7ff f87f 0505 0b0a 5263
00000070: 81fc dcd2 e8cf ff01 f294 0304 f8fa f6fa
00000080: 17ff a90c 58ff 21fb 6ddc d981 08cd b6fc
00000090: ffd0 faf9 c00e e001 adfc 119b d1e1 0300
000000a0: 8452 0004 0503 024a 01f9 6706 de2e f6f8
000000b0: 8103 bcfd 0162 6601 0b0e 00f9 2710 2fa8
000000c0: 1d06 932d 5558 0403 0aaf 05fc 02fc fac0
000000d0: f703 bc05 f281 fafc dfe2 afc1 f6cc bbfe
000000e0: 0af1 0702 b5f6 f003 e8fe 1016 f6b8 06fe
000000f0: 087f fb03 fbfb 01d4 f202 bbfb 7830 f704
35 30 7 4 1 -1 -2 -64
-3 7 -127 3 -111 104 -15 5
-42 -17 13 -70 -14 -62 -41 -5
-4 12 -2 -3 124 -2 -51 -42
42 -8 -14 4 29 89 5 5
11 16 3 1 4 -2 2 -27
4 -4 78 -7 -98 64 -2 6
-44 -25 -22 -6 6 11 -89 -5
4 -68 -7 -7 -60 -6 -7 26
-127 -5 22 100 29 -104 1 2
93 -34 -3 0 -5 5 2 -59
14 2 47 -6 56 -101 -15 9
-79 78 -19 -37 13 20 -73 -1
-8 127 5 5 11 10 82 99
-127 -4 -36 -46 -24 -49 -1 1
-14 -108 3 4 -8 -6 -10 -6
23 -1 -87 12 88 -1 33 -5
109 -36 -39 -127 8 -51 -74 -4
-1 -48 -6 -7 -64 14 -32 1
-83 -4 17 -101 -47 -31 3 0
-124 82 0 4 5 3 2 74
1 -7 103 6 -34 46 -10 -8
-127 3 -68 -3 1 98 102 1
11 14 0 -7 39 16 47 -88
29 6 -109 45 85 88 4 3
10 -81 5 -4 2 -4 -6 -64
-9 3 -68 5 -14 -127 -6 -4
-33 -30 -81 -63 -10 -52 -69 -2
10 -15 7 2 -75 -10 -16 3
-24 -2 16 22 -10 -72 6 -2
8 127 -5 3 -5 -5 1 -44
-14 2 -69 -5 120 48 -9 4

sequential_1/dense_1/MatMul i1 [40, 84]
00000000: 2bff 3a46 191d d336 d8e3 fc21 cb39 237f
00000010: 2531 1611 cedb 1bd9 c5ec ea1c fcf8 b9fb
00000020: dabb f248 b1ed 22bd 1ab8 1d0a 0426 da38
00000030: cf21 239f 3dff 074d ed2d b9fb 0af5 3202
00000040: ced9 34d0 3326 dc57 a140 0d7a 30bf 6c9e
00000050: 4dfa 28a9 def7 e4cd f60f 16c0 3204 11e9
00000060: c8e8 ed0a 8148 eafb d7f1 002d cb2b 2dde
00000070: 40ff f7e1 f410 0b03 d81c d9e2 0aed ebff
00000080: f9de 1bee ccaa 39ad cdf6 e3f4 de4a f42b
00000090: 11bf 41df 46cb e6e8 38db f1dc 2309 07fc
000000a0: 21e1 fe0c 00fb 1848 1a96 c817 f92a 08ca
000000b0: 2850 ffad 30e4 dbf3 ce61 f899 95c1 9717
000000c0: 133a 2f97 c2fe 2bf1 07cf e611 0fe3 b9f3
000000d0: f314 fe5a e61c e256 c230 23e1 f3b1 f2b2
000000e0: ec16 08ea 1e9c 3d51 cb7f 036e 399d 36eb
000000f0: 011a dd72 1ab0 452d 29d5 9e0f 15ef de25
43 -1 58 70 25 29 -45 54
-40 -29 -4 33 -53 57 35 127
37 49 22 17 -50 -37 27 -39
-59 -20 -22 28 -4 -8 -71 -5
-38 -69 -14 72 -79 -19 34 -67
26 -72 29 10 4 38 -38 56
-49 33 35 -97 61 -1 7 77
-19 45 -71 -5 10 -11 50 2
-50 -39 52 -48 51 38 -36 87
-95 64 13 122 48 -65 108 -98
77 -6 40 -87 -34 -9 -28 -51
-10 15 22 -64 50 4 17 -23
-56 -24 -19 10 -127 72 -22 -5
-41 -15 0 45 -53 43 45 -34
64 -1 -9 -31 -12 16 11 3
-40 28 -39 -30 10 -19 -21 -1
-7 -34 27 -18 -52 -86 57 -83
-51 -10 -29 -12 -34 74 -12 43
17 -65 65 -33 70 -53 -26 -24
56 -37 -15 -36 35 9 7 -4
33 -31 -2 12 0 -5 24 72
26 -106 -56 23 -7 42 8 -54
40 80 -1 -83 48 -28 -37 -13
-50 97 -8 -103 -107 -63 -105 23
19 58 47 -105 -62 -2 43 -15
7 -49 -26 17 15 -29 -71 -13
-13 20 -2 90 -26 28 -30 86
-62 48 35 -31 -13 -79 -14 -78
-20 22 8 -22 30 -100 61 81
-53 127 3 110 57 -99 54 -21
1 26 -35 114 26 -80 69 45
41 -43 -98 15 21 -17 -34 37
