models/keypoint_classifier_rotated_left-handed_landmarks 22nd Jan.tflite (tflite, 12288 bytes, 6 tensors)

arith.constant f4 [50]
00000000: b71b 223e e489 f1bc 6511 b53b 06e7 68bb
00000010: 3ebf bfbd eca3 cbbd ec9b 773e 846e 5a3d
00000020: b581 98bd 46a7 c83a 3a0e 8abb 8df6 bb3c
00000030: 4dfb 50bd e9fc 913d 6473 0d3d cce9 b0bc
00000040: 370d 313d 3768 81be 4c76 a23d 0dbc 143e
00000050: 7ed4 fcbd 1200 20be a225 1bbd f7e4 99bc
00000060: cdcc 2f3d 9e90 8c3d f206 8dbc 47a4 0f3e
00000070: f3a6 293e f487 053e 3cf5 eebd 62c8 e03d
00000080: 062a b4bd f3c7 8c3d 8276 3dbe 626c 48bd
00000090: 492c 3abc 8cb3 4f3d 79df f5bc 4e40 62bd
000000a0: 4b10 b23c c0a6 13be b589 6c3d b23e 9dbd
000000b0: ad38 ca3c 7ff3 b93d f287 0fbe 221a d53d
000000c0: e679 94bc 8db7 f8b9
0.15830885 -0.029484697 0.005525755 -0.0035538091 -0.093626484 -0.09943375 0.24180573 0.053328052
-0.07446615 0.001530864 -0.0042131217 0.022944713 -0.05102091 0.07128317 0.034533873 -0.021595858
0.043225493 -0.25274822 0.079327196 0.1452486 -0.12345217 -0.15625027 -0.037877686 -0.018785937
0.042919923 0.06863521 -0.017215226 0.1402751 0.16567592 0.13040143 -0.116678685 0.1097572
-0.08797078 0.06874075 -0.18502238 -0.048931487 -0.0113630975 0.05070834 -0.030013787 -0.055237107
0.021736285 -0.14419079 0.057748515 -0.07677974 0.024685228 0.09079646 -0.14016703 0.10405375
-0.018124532 -0.00047439002

arith.constant1 f4 [50]
00000000: 7a48 04be 5759 5c3d 7d28 173e 285a 10bd
00000010: 1c95 b7bc 8c46 243e 4515 febc 0231 cabc
00000020: 68fb 983d 207b aebd e593 19bd 3aa2 623d
00000030: 1463 babd 544b 77bd 8ae2 d53d 7a8f 933b
00000040: 528f 083c b19b 57bd b34d 073d 87ba 133e
00000050: 69fa 93bd 9db4 5fbc 6f9c 10be 9a83 d2bd
00000060: de20 54bd b243 9fbd c8b6 bfbc dd35 9fbe
00000070: cb6e 4e3c 9171 25bd 439c 23be 1ef4 b53d
00000080: 1061 cdbc b377 b1bc 7e8a 453e 29dd 54be
00000090: 8800 9abd 5db4 b5bc a1ff 513e 5e37 f4bc
000000a0: c315 dfbc eb15 6fbd d651 073c 310f b93d
000000b0: b869 c13d f224 afbd b2da c4bc 0e72 603d
000000c0: cbef 483c 2251 8e3b
-0.12918273 0.05379614 0.14761539 -0.03524223 -0.022409968 0.16042536 -0.031016001 -0.024681572
0.07469827 -0.08519578 -0.03749456 0.055330493 -0.09100929 -0.060374573 0.104435995 0.0045031877
0.0083349515 -0.052638713 0.033033084 0.14426623 -0.07225496 -0.013653901 -0.14122175 -0.10279007
-0.051789157 -0.07776584 -0.023402587 -0.31095782 0.012599657 -0.04039151 -0.15977578 0.08884452
-0.025070697 -0.021663522 0.19291112 -0.20787491 -0.075196326 -0.02218073 0.20507671 -0.029811557
-0.027232056 -0.058370512 0.008259257 0.09036101 0.094439924 -0.08551969 -0.024030063 0.05479627
0.012264202 0.004343168

arith.constant2 f4 [26]
00000000: f8fb 88c0 717a 8dc0 e75f 643f 0ed5 1f41
00000010: dc14 3ac0 4317 71c0 200d ba40 1c27 b2c0
00000020: 5e04 da40 be4c a9c0 225e 0441 6627 da40
00000030: 1709 cd3e d42d 8840 8875 45c0 adab a2bf
00000040: 1ba4 1c40 c8d8 1dc0 2972 323f 8cbe 7f40
00000050: c707 553f b3c8 8740 a088 5ec0 c245 463e
00000060: 687a 4dc0 cfff a7c0
-4.280758 -4.4211965 0.89208835 9.989515 -2.9075232 -3.7670448 5.814102 -5.567274
6.813033 -5.290618 8.272982 6.8173094 0.40045998 4.2555943 -3.0852985 -1.2708641
2.4475162 -2.4663563 0.69705445 3.996005 0.8321499 4.2432494 -3.477089 0.19362548
-3.210596 -5.2499766

tfl.pseudo_qconst i1 [26, 50]
00000000: fcfe 0001 fce7 0000 76fd 7f01 d1e2 ff00
00000010: 03ff 0103 01fe 020a ffff 1601 0301 00fe
00000020: df01 fb05 0502 02fe 020c 0172 09fd 0300
00000030: ffe9 ffff 00ff ffe3 fffb 6dff 7ffc a2b6
00000040: ffff 01ff 0307 00ff 0612 ff01 1700 0201
00000050: fffe 0704 ff15 0401 0400 010d 0272 d9eb
00000060: 02fd 02fa 0604 04fd fd17 0202 0500 f8f6
00000070: 810c ef07 f80b fbf0 fe0a fcb9 00fb a403
00000080: 0cff fbff aef5 f806 fb02 fb05 fef9 fc0a
00000090: baf9 01fe fb02 fa01 01fc 00db fdf8 beff
000000a0: e7f6 fb7f 0bfe f801 04fd 00fc fcf9 fefa
000000b0: f4ff fc03 f907 b409 0601 f3fe f6fe fcf5
000000c0: fb01 d90b fa01 fafc fbff 00ff fee5 fefd
000000d0: 57fe 7f00 e2b3 0000 04fc 0005 0000 021f
000000e0: 0001 1901 0100 02fe 07fc ff12 0000 0200
000000f0: 000f 0161 23f2 01fe 00eb fdfd 01ff fbde
-4 -2 0 1 -4 -25 0 0
118 -3 127 1 -47 -30 -1 0
3 -1 1 3 1 -2 2 10
-1 -1 22 1 3 1 0 -2
-33 1 -5 5 5 2 2 -2
2 12 1 114 9 -3 3 0
-1 -23 -1 -1 0 -1 -1 -29
-1 -5 109 -1 127 -4 -94 -74
-1 -1 1 -1 3 7 0 -1
6 18 -1 1 23 0 2 1
-1 -2 7 4 -1 21 4 1
4 0 1 13 2 114 -39 -21
2 -3 2 -6 6 4 4 -3
-3 23 2 2 5 0 -8 -10
-127 12 -17 7 -8 11 -5 -16
-2 10 -4 -71 0 -5 -92 3
12 -1 -5 -1 -82 -11 -8 6
-5 2 -5 5 -2 -7 -4 10
-70 -7 1 -2 -5 2 -6 1
1 -4 0 -37 -3 -8 -66 -1
-25 -10 -5 127 11 -2 -8 1
4 -3 0 -4 -4 -7 -2 -6
-12 -1 -4 3 -7 7 -76 9
6 1 -13 -2 -10 -2 -4 -11
-5 1 -39 11 -6 1 -6 -4
-5 -1 0 -1 -2 -27 -2 -3
87 -2 127 0 -30 -77 0 0
4 -4 0 5 0 0 2 31
0 1 25 1 1 0 2 -2
7 -4 -1 18 0 0 2 0
0 15 1 97 35 -14 1 -2
0 -21 -3 -3 1 -1 -5 -34

tfl.pseudo_qconst1 i1 [50, 50]
00000000: d9b9 e60a 25d7 44f8 1caf dfd2 1a38 f0e9
00000010: eade 7f17 be18 cc3d af52 b0f2 1b0f b8ce
00000020: f0c8 2fb4 e928 2a8e dfa7 c317 030e d0ce
00000030: 44c9 0ecc e903 19f0 1815 1f19 f90b 1de4
00000040: f3e3 aa1a fafa e51a 16cf 8144 0f10 cce9
00000050: e815 c917 1dd6 48dd c80e be23 321a e733
00000060: c528 d91a 8142 0b16 6950 178a 19e3 e1e0
00000070: 4be8 9fc4 30d1 4403 1f3c 28d7 050e 15b6
00000080: e258 1d0e f3df 2ab3 dcfc 0cd1 670d fd38
00000090: 35b1 2a22 0fca f3fd ee0f dc50 7aa1 3c2e
000000a0: b081 4be9 8efd f132 fff1 0bb0 e73c fced
000000b0: 2df0 14ec 3553 f2d1 90ff defa 2bb7 e402
000000c0: c81a f4c9 26e9 f11c 1a0f cea7 634f fd51
000000d0: 8a04 f042 a331 cde5 19e9 c7b4 cbb5 3435
000000e0: ff3a 991a a2c6 2838 edde ac63 e0f1 a2f4
000000f0: 4a0f 12ff 2815 cf7f a009 19c0 ccc3 dac8
-39 -71 -26 10 37 -41 68 -8
28 -81 -33 -46 26 56 -16 -23
-22 -34 127 23 -66 24 -52 61
-81 82 -80 -14 27 15 -72 -50
-16 -56 47 -76 -23 40 42 -114
-33 -89 -61 23 3 14 -48 -50
68 -55 14 -52 -23 3 25 -16
24 21 31 25 -7 11 29 -28
-13 -29 -86 26 -6 -6 -27 26
22 -49 -127 68 15 16 -52 -23
-24 21 -55 23 29 -42 72 -35
-56 14 -66 35 50 26 -25 51
-59 40 -39 26 -127 66 11 22
105 80 23 -118 25 -29 -31 -32
75 -24 -97 -60 48 -47 68 3
31 60 40 -41 5 14 21 -74
-30 88 29 14 -13 -33 42 -77
-36 -4 12 -47 103 13 -3 56
53 -79 42 34 15 -54 -13 -3
-18 15 -36 80 122 -95 60 46
-80 -127 75 -23 -114 -3 -15 50
-1 -15 11 -80 -25 60 -4 -19
45 -16 20 -20 53 83 -14 -47
-112 -1 -34 -6 43 -73 -28 2
-56 26 -12 -55 38 -23 -15 28
26 15 -50 -89 99 79 -3 81
-118 4 -16 66 -93 49 -51 -27
25 -23 -57 -76 -53 -75 52 53
-1 58 -103 26 -94 -58 40 56
-19 -34 -84 99 -32 -15 -94 -12
74 15 18 -1 40 21 -49 127
-96 9 25 -64 -52 -61 -38 -56

sequential_1/dense_1/MatMul i1 [50, 84]
00000000: e8cd 30f6 2df7 ee28 3d04 5fba 7fd0 4937
00000010: 4945 05eb 2410 e217 4e00 0cab 3fea 07bd
00000020: 6d21 beb3 e5a0 19b1 3223 2535 e06e 43ea
00000030: f53b 3c28 0e26 bc1d ba07 a6d3 be2e 29f2
00000040: d040 d153 0e0b 024d 070a 3d03 2633 2325
00000050: 32e1 c515 37fb 29c9 731c 38b4 5fb7 cef1
00000060: aa1f cdcd e7b1 2a11 c0d4 27e7 0db1 dd3c
00000070: 0cee d0a2 9681 013e ff40 1032 03b3 031e
00000080: b4e0 d9d8 446a 4f2a a7e1 38e7 0b0a 7d40
00000090: 1ac9 2e35 e5ec f2d8 d9f6 d7ff 3416 b91d
000000a0: daaf 172e ef29 abbb eeda fbc0 2af3 33c1
000000b0: 3bea f104 db1e fd2c 15c7 191b dfd8 e705
000000c0: 12e3 ed07 3c41 1430 3520 3f2d 22ee d80d
000000d0: e2ff ff1b 2836 4532 3a4c 7f13 f83a 3f5b
000000e0: df0c d0e9 2152 3337 2e1e 4a07 e056 ed0f
000000f0: 170a ff2a 2b06 e249 dd39 fd1e 1eb5 d00d
-24 -51 48 -10 45 -9 -18 40
61 4 95 -70 127 -48 73 55
73 69 5 -21 36 16 -30 23
78 0 12 -85 63 -22 7 -67
109 33 -66 -77 -27 -96 25 -79
50 35 37 53 -32 110 67 -22
-11 59 60 40 14 38 -68 29
-70 7 -90 -45 -66 46 41 -14
-48 64 -47 83 14 11 2 77
7 10 61 3 38 51 35 37
50 -31 -59 21 55 -5 41 -55
115 28 56 -76 95 -73 -50 -15
-86 31 -51 -51 -25 -79 42 17
-64 -44 39 -25 13 -79 -35 60
12 -18 -48 -94 -106 -127 1 62
-1 64 16 50 3 -77 3 30
-76 -32 -39 -40 68 106 79 42
-89 -31 56 -25 11 10 125 64
26 -55 46 53 -27 -20 -14 -40
-39 -10 -41 -1 52 22 -71 29
-38 -81 23 46 -17 41 -85 -69
-18 -38 -5 -64 42 -13 51 -63
59 -22 -15 4 -37 30 -3 44
21 -57 25 27 -33 -40 -25 5
18 -29 -19 7 60 65 20 48
53 32 63 45 34 -18 -40 13
-30 -1 -1 27 40 54 69 50
58 76 127 19 -8 58 63 91
-33 12 -48 -23 33 82 51 55
46 30 74 7 -32 86 -19 15
23 10 -1 42 43 6 -30 73
-35 57 -3 30 30 -75 -48 13
