models/keypoint_classifier_right_handed_5th_Feb.tflite (tflite, 7392 bytes, 4 tensors)

arith.constant f4 [40]
000000 38 c6 f0 3d 8a 3b 94 bd 2e c2 11 3e fa 1e a2 3d
       0.11756557 -0.07237919 0.1423423 0.079160646
000010 39 60 15 3e d9 69 46 3d 30 49 f0 3c d9 d0 83 bd
       0.14587487 0.048440788 0.029331774 -0.06436319
000020 ac 96 b6 3c 80 6d 1b bd d2 be 4f 3d 8c 91 02 3c
       0.022288643 -0.037946224 0.05071909 0.007969271
000030 e6 98 50 3e fb 66 78 3b 6d 48 bd 3b c3 a8 b3 3b
       0.20370826 0.0037903178 0.005776456 0.0054827644
000040 96 33 ee bc db 91 53 bd 21 02 36 bd 05 da d9 3d
       -0.029077332 -0.05165277 -0.044435624 0.10637287
000050 ee b7 e6 3b b1 2c 2a 3e 61 03 fe 3d 40 e5 aa bb
       0.007040969 0.16618611 0.12402988 -0.005215317
000060 f8 53 84 bc 43 c3 9e bd 8e 22 3c 3e 14 73 2e 3d
       -0.01615332 -0.07752087 0.18372557 0.042590216
000070 6e 6c 88 bb 7e 54 99 3d a9 c2 74 bc fc 92 49 bc
       -0.0041633165 0.07486819 -0.014938989 -0.01230311
000080 86 4e 76 be 71 2f 0a 3d b7 07 5e 3b 47 84 88 3d
       -0.24053392 0.03373665 0.003387911 0.06665855
000090 20 f5 86 3d 26 11 30 3d 54 43 b6 bd 19 20 82 bc
       0.06589723 0.042985104 -0.088995606 -0.015884446

arith.constant1 f4 [26]
000000 49 93 ac 40 b5 32 3a 40 46 72 dc 3f 81 64 d4 40
       5.392979 2.909345 1.7222373 6.6372685
000010 37 d5 90 40 33 75 d9 bf 19 f1 8d 40 02 29 1b c0
       4.526027 -1.6988891 4.435681 -2.424378
000020 94 d4 b7 3f 7a c4 2c c0 01 6c 6f c0 ad a0 17 40
       1.4361749 -2.699492 -3.740967 2.3691819
000030 5e 46 14 40 84 da c2 bf 5e 43 21 be e1 97 d6 40
       2.3167949 -1.5222936 -0.15748355 6.70604
000040 d0 6e 56 40 78 5c 8d 40 b8 37 f6 3f 1a 5b 87 3e
       3.3505135 4.4175377 1.9235754 0.26436692
000050 8b dc 5f bf 20 45 bb 3e 98 b2 8d 3f 41 07 a0 40
       -0.87445897 0.36576176 1.1070127 5.0008855
000060 a5 bc 23 c0 77 c6 2a 40
       -2.558389 2.6683633

tfl.pseudo_qconst i1 [26, 40]
000000 b8 0c e5 f5 cd f7 2c 7f 18 e5 d6 d9 f9 0a d9 f5
       -72 12 -27 -11 -51 -9 44 127 24 -27 -42 -39 -7 10 -39 -11
000010 a9 b6 0b fb ad c5 bf 31 e9 cc b2 c1 d8 29 94 19
       -87 -74 11 -5 -83 -59 -65 49 -23 -52 -78 -63 -40 41 -108 25
000020 b6 eb c7 e3 a7 da 20 f9 aa 11 f2 0e 2e b7 c5 81
       -74 -21 -57 -29 -89 -38 32 -7 -86 17 -14 14 46 -73 -59 -127
000030 1f 89 18 da 05 a9 af d3 83 e8 ea f9 50 b2 1f e4
       31 -119 24 -38 5 -87 -81 -45 -125 -24 -22 -7 80 -78 31 -28
000040 5a b3 15 5c dc 5d 82 03 a0 25 04 9a ba e8 25 c2
       90 -77 21 92 -36 93 -126 3 -96 37 4 -102 -70 -24 37 -62
000050 b3 04 23 e7 fe d8 d5 da 03 22 d8 1f 1b 15 dd d4
       -77 4 35 -25 -2 -40 -43 -38 3 34 -40 31 27 21 -35 -44
000060 b6 db 81 57 bd 22 24 ce 2d e9 06 13 fc 30 c8 fc
       -74 -37 -127 87 -67 34 36 -50 45 -23 6 19 -4 48 -56 -4
000070 63 24 50 f7 70 c9 f5 c4 2c e7 ce fb d7 f3 bf 81
       99 36 80 -9 112 -55 -11 -60 44 -25 -50 -5 -41 -13 -65 -127
000080 fd 03 ff ee e4 0d c8 e4 c2 df c8 d6 24 d4 ad d9
       -3 3 -1 -18 -28 13 -56 -28 -62 -33 -56 -42 36 -44 -83 -39
000090 d2 ce f5 cb e4 d7 b2 f0 7a e8 15 63 f2 33 04 0b
       -46 -50 -11 -53 -28 -41 -78 -16 122 -24 21 99 -14 51 4 11
0000a0 e1 1e ff 29 cc c5 04 f2 12 cd 0a e9 c5 07 1f 21
       -31 30 -1 41 -52 -59 4 -14 18 -51 10 -23 -59 7 31 33
0000b0 81 d4 f9 01 37 2c cd d3 15 07 9c e3 d2 c1 0b e7
       -127 -44 -7 1 55 44 -51 -45 21 7 -100 -29 -46 -63 11 -25
0000c0 e6 e5 ef b6 e4 cf f4 0d 41 f7 ff d2 c4 d2 f1 3e
       -26 -27 -17 -74 -28 -49 -12 13 65 -9 -1 -46 -60 -46 -15 62
0000d0 1f 0c 2c 2f 3b 17 e0 d3 81 51 e0 14 26 dc d9 41
       31 12 44 47 59 23 -32 -45 -127 81 -32 20 38 -36 -39 65
0000e0 59 08 11 ea fa c2 82 36 94 08 a5 ca 2e fb 11 4c
       89 8 17 -22 -6 -62 -126 54 -108 8 -91 -54 46 -5 17 76
0000f0 f8 e4 39 d9 f2 ea e8 75 f0 fd 55 c3 9e b9 d3 f8
       -8 -28 57 -39 -14 -22 -24 117 -16 -3 85 -61 -98 -71 -45 -8

sequential_7_1/dense_18_1/MatMul i1 [40, 84]
000000 0f 21 17 60 f9 e6 f3 3e 7f c3 83 d5 09 f9 19 22
       15 33 23 96 -7 -26 -13 62 127 -61 -125 -43 9 -7 25 34
000010 1f cc f7 ae c1 43 d7 fe 83 06 db c9 4d 1b ec d7
       31 -52 -9 -82 -63 67 -41 -2 -125 6 -37 -55 77 27 -20 -41
000020 e1 ff d4 d1 2d 04 28 33 48 19 f0 d7 ff fe fe f0
       -31 -1 -44 -47 45 4 40 51 72 25 -16 -41 -1 -2 -2 -16
000030 3b 2e a7 21 24 9b c9 e1 e9 a3 03 23 3f fd 51 19
       59 46 -89 33 36 -101 -55 -31 -23 -93 3 35 63 -3 81 25
000040 2b 16 f4 cf 04 40 07 1d 9c 5a c8 f7 03 49 fd d5
       43 22 -12 -49 4 64 7 29 -100 90 -56 -9 3 73 -3 -43
000050 1d e7 53 2f 31 cc c4 01 d8 19 d2 9a 02 fe 07 c2
       29 -25 83 47 49 -52 -60 1 -40 25 -46 -102 2 -2 7 -62
000060 5d 4b f8 21 5f 5d 35 1f 3a b9 48 1e c8 ac cb 79
       93 75 -8 33 95 93 53 31 58 -71 72 30 -56 -84 -53 121
000070 57 db bc 07 f6 2f 46 0e 81 9d e9 92 eb 91 b4 36
       87 -37 -68 7 -10 47 70 14 -127 -99 -23 -110 -21 -111 -76 54
000080 97 65 9c fc c8 d1 11 32 51 ce df cd 67 f0 13 07
       -105 101 -100 -4 -56 -47 17 50 81 -50 -33 -51 103 -16 19 7
000090 7b 47 ec 5a b5 ef 1a 6e e2 cc 9c e4 17 32 21 aa
       123 71 -20 90 -75 -17 26 110 -30 -52 -100 -28 23 50 33 -86
0000a0 28 0b dc cc ad fd a1 6d 04 81 13 2d 90 d9 60 e5
       40 11 -36 -52 -83 -3 -95 109 4 -127 19 45 -112 -39 96 -27
0000b0 c6 5c a9 28 c6 05 a8 67 b7 31 20 16 ad 4b 72 db
       -58 92 -87 40 -58 5 -88 103 -73 49 32 22 -83 75 114 -37
0000c0 5f 34 26 66 c3 5b 49 b1 9b ef 5a d2 16 fb 3e e2
       95 52 38 102 -61 91 73 -79 -101 -17 90 -46 22 -5 62 -30
0000d0 07 d2 f9 e3 11 06 31 c9 e2 b2 76 4f 1c 34 59 2e
       7 -46 -7 -29 17 6 49 -55 -30 -78 118 79 28 52 89 46
0000e0 09 d2 a3 db 15 1c 37 dd ff f7 e8 b7 06 15 33 7a
       9 -46 -93 -37 21 28 55 -35 -1 -9 -24 -73 6 21 51 122
0000f0 db a7 e0 09 1c 46 e0 76 31 2d 04 a8 e0 f4 34 27
       -37 -89 -32 9 28 70 -32 118 49 45 4 -88 -32 -12 52 39
