models/keypoint_classifier_right_handed_19th_Jan.tflite (tflite, 19628 bytes, 4 tensors)

arith.constant f4 [26, 40]
000000 e1 22 71 40 c3 0d 03 40 75 3e 20 40 3a 53 b3 3f
       3.7677538 2.047715 2.503812 1.4009774
000010 e8 d2 2b 3f 27 de 80 bf 06 a4 00 bf 3b 3e 93 c0
       0.6711869 -1.0067796 -0.5025028 -4.6013465
000020 95 a8 bb bf 52 91 5b 40 57 f1 5b c0 06 4d 1c 40
       -1.4660822 3.4307446 -3.4366052 2.4422011
000030 2f 2d 79 c0 08 81 aa 40 02 ca 06 c1 1a 7a a1 40
       -3.8933828 5.328251 -8.424318 5.046155
000040 6b 7d a8 c0 bf 59 6e c0 79 79 0c bf 53 e6 89 c0
       -5.26531 -3.7242277 -0.5487285 -4.3093657
000050 ae a8 62 c0 23 9b f5 bf cb 5c 25 c1 3b a9 b3 c0
       -3.5415454 -1.9187969 -10.335155 -5.614408
000060 4a e3 4d bf 75 59 cf 40 10 71 65 bf ce 24 06 c0
       -0.8042494 6.47967 -0.89625645 -2.0959964
000070 c6 88 20 41 d7 61 82 be ff 81 69 c0 4f 41 63 c0
       10.033392 -0.2546527 -3.6485593 -3.5508611
000080 fa e9 9a 40 36 fb bf c0 cc cd 2a c0 df c0 6c 41
       4.8410616 -5.9994154 -2.6688108 14.797088
000090 25 57 dc 3f 6e a2 85 40 81 3d e0 3f d1 51 36 40
       1.7214094 4.176078 1.751877 2.8487437
0000a0 0f 5a b3 c0 6e 36 b6 3f 63 07 a7 3f f8 59 99 3e
       -5.6047435 1.4235361 1.3049129 0.29951453
0000b0 3b 3b 27 40 72 58 e3 bf 2a 47 1a 3f 27 fe d5 be
       2.6129901 -1.7761366 0.6026484 -0.41795465
0000c0 b3 ed 10 3f 57 b4 06 c0 ff b5 64 40 af f7 8c c0
       0.566127 -2.104757 3.5736082 -4.405235
0000d0 f6 35 50 c0 7b 5a 6c 40 47 de cc 3d 5c b7 9c 40
       -3.2532935 3.6930225 0.100033335 4.8973827
0000e0 f5 9d 9f c0 72 3d 97 c0 32 d5 e5 bf b0 fe 9c be
       -4.988032 -4.7262506 -1.7955687 -0.3066306
0000f0 c0 95 e7 3f a9 3f 98 bd c9 0c e1 c1 eb ee 9c c0
       1.8092575 -0.07434017 -28.131243 -4.904165
000100 8f e2 80 3f fc ba a9 c0 45 07 34 c0 5d 44 7e c0
       1.006914 -5.3040752 -2.8129437 -3.9729226
000110 d8 5c d4 c0 66 4a ba bf b2 62 9f bf ad 6c c8 3d
       -6.6363335 -1.4553955 -1.2451994 0.09786353
000120 c6 3c ce c0 b2 e9 82 c0 f4 e2 37 41 45 c4 4a 42
       -6.4449186 -4.0910273 11.4929085 50.69167
000130 5e 4c c7 3f 81 d5 81 c0 66 c4 5e 3f 47 5f 92 3f
       1.557018 -4.0573125 0.8701843 1.1435326
000140 09 ba 85 41 7d a4 37 3d ee 70 4d bf e1 92 87 be
       16.715837 0.044834603 -0.8025044 -0.26479247
000150 e4 2e 16 c0 bf 46 29 40 f0 15 92 3e 80 65 0a c0
       -2.346612 2.644943 0.28532362 -2.162445
000160 80 c1 75 40 c7 82 3e 3f c4 f7 0e 40 69 1f 34 c0
       3.8399353 0.744183 2.2338724 -2.8144171
000170 d1 78 d6 3f 35 90 ac bf 31 b1 bb c0 42 b0 d6 40
       1.675562 -1.3481508 -5.86538 6.709016
000180 ef 39 d2 c0 03 0e b3 40 78 71 ce bf cb 5e b8 bf
       -6.569572 5.5954604 -1.6128378 -1.4403929
000190 7c c2 0f 40 5a 7b 6a bc 08 3c 74 c1 6d e3 7b bf
       2.2462454 -0.014311636 -15.264656 -0.983939
0001a0 32 f1 8a bf 69 7a 97 41 0a bb e1 3f bd 01 12 40
       -1.0854857 18.93477 1.7635205 2.281356
0001b0 c9 d2 53 bf 91 88 4e 40 4d aa 16 40 3e cc 4e 40
       -0.8274351 3.2270854 2.3541443 3.231216
0001c0 43 a0 8a c0 08 68 10 c0 f9 1f de c0 14 69 af 3e
       -4.332063 -2.2563496 -6.941403 0.34259856
0001d0 f2 14 df bf cf 7e bd bf 55 d2 cd bd 51 a6 44 3f
       -1.7428267 -1.4804324 -0.10049883 0.7681628
0001e0 66 26 36 c1 d7 84 21 c0 4a b4 85 3e d6 e6 bf 3f
       -11.384375 -2.523733 0.26114112 1.499232
0001f0 94 b6 55 c0 ad b8 6a c0 79 a3 96 bf ba 31 9a 3f
       -3.3392687 -3.6675217 -1.1768638 1.2046425
000200 0f 1f b3 40 f2 8c bd bc ae 45 c6 bf c2 a1 a6 40
       5.5975413 -0.023138497 -1.5490015 5.207246
000210 8a 05 14 40 1f f1 7a 3f 62 92 61 41 3b fa 89 c0
       2.312838 0.9802417 14.098238 -4.3117957
000220 72 33 b0 40 ba 1d 87 c0 f0 ed cc bf f8 37 bc c0
       5.50628 -4.2223787 -1.6010113 -5.881832
000230 0b 9c ad 3f 1b d7 8e bf ca 87 95 c1 47 e9 90 c0
       1.3563246 -1.1159395 -18.691303 -4.528476
000240 41 84 4e 3e f3 8c 01 c0 2e 76 ac bf d3 9e 14 c0
       0.20167638 -2.0242279 -1.3473566 -2.3221939
000250 02 fd 9d c0 c1 ea 87 40 b9 39 da bf 09 50 0e bf
       -4.9371347 4.2474065 -1.7048866 -0.55590874
000260 7d 02 35 c0 6f 7b 29 c0 1e 11 cd 40 0b 50 98 c1
       -2.8282769 -2.6481588 6.4083395 -19.039083
000270 18 4a 2e c0 f4 ec 86 bf db d1 c3 3e b9 20 8f 3e
       -2.7232723 -1.0541062 0.38246045 0.27954653
000280 4b 64 2d c1 54 67 af 3e 89 55 8f 3e 58 d1 a2 3f
       -10.836986 0.3425852 0.27994946 1.2720137
000290 d9 56 ba 3d ac 39 7e bf ea 78 01 3f 57 62 92 3f
       0.09098596 -0.9930675 0.50575125 1.1436261
0002a0 55 bc 4d 3f 94 9b 8b be 1a c0 22 3f 3f cf ab 3e
       0.80365497 -0.27267134 0.63574374 0.33556554
0002b0 76 0c 7a bf 5a 18 0c bf 59 07 5d c0 71 a2 b6 bf
       -0.97675264 -0.5472466 -3.4535735 -1.4268323
0002c0 0c 01 fa bf 14 02 be 3f cc c8 2e be 3a ab b6 bf
       -1.953157 1.4844384 -0.17068785 -1.4271004
0002d0 b8 a2 21 3f 6b ab a8 3f 8a c4 3b 41 74 59 9b 3f
       0.63138914 1.3177313 11.735483 1.2136674
0002e0 15 86 b9 3e 87 8c 50 c0 d7 dc b3 3e f3 c0 16 bf
       0.3623511 -3.258577 0.35129425 -0.5888817
0002f0 ae 56 24 40 49 4b 47 3f 6c ac e0 3f ae d8 49 bf
       2.5677905 0.7784925 1.7552619 -0.7884625
000300 d8 66 65 bf 8e eb 67 3f 90 22 a0 c1 ba 62 93 c0
       -0.8961005 0.905938 -20.016876 -4.6058016
000310 18 98 3a 40 a2 95 cc 3e b2 3f 92 3c f4 4c ae 3f
       2.915533 0.3995791 0.017852638 1.3617234
000320 ae b6 a1 c0 66 85 2c c0 82 95 21 40 e7 93 0f c0
       -5.05355 -2.695642 2.5247502 -2.2434022
000330 5e f0 9a 3f 51 b1 64 c0 5f 97 be bf 17 19 b6 c0
       1.2104604 -3.5733225 -1.4889945 -5.6905627
000340 a0 97 5b c0 27 12 c1 3f 5a 32 e2 bf e7 8e 83 40
       -3.4311295 1.5083665 -1.7671616 4.111194
000350 bd a1 d2 be 39 57 84 c0 69 34 57 c0 5d 5f 90 c0
       -0.41139022 -4.1356473 -3.3625739 -4.511641
000360 33 54 86 c0 ad b5 b4 c0 62 2f 8a c0 a5 d7 89 c0
       -4.197778 -5.647177 -4.318284 -4.307574
000370 e1 9d 2a c0 05 da e4 bf fe 2b c7 c1 b0 f8 2d c0
       -2.6658862 -1.7879034 -24.89648 -2.7183037
000380 0e 13 25 40 74 25 d3 3f 3c 66 4b 40 8b 00 a3 3f
       2.579288 1.6495805 3.178115 1.2734541
000390 0f b3 0e c1 94 ba 76 c0 74 74 dd bf 33 1c 5f bf
       -8.9187155 -3.8551378 -1.7301164 -0.87152404
0003a0 c3 f5 cd bc 25 4c e1 bf 23 4b 19 41 98 9e ae 41
       -0.025141602 -1.7601362 9.580844 21.827438
0003b0 0b 5d 92 bf b4 3d 59 c0 ce c7 13 40 fb f8 b9 bf
       -1.1434644 -3.394391 2.30907 -1.4529108
0003c0 4b 77 9f c0 57 54 96 40 3e 00 ed bf 3f dc a1 3f
       -4.983312 4.6977954 -1.8515699 1.2645339
0003d0 18 45 4d c0 a0 2e 4f c0 ad d0 09 3e 08 7e 42 c0
       -3.2073421 -3.2372208 0.1345851 -3.0389423
0003e0 8e 17 92 c0 57 74 2f 3f 04 4d d7 bf a9 69 42 c0
       -4.5653753 0.68536896 -1.6820378 -3.037699
0003f0 93 e3 89 40 9a b5 34 40 56 af 9e c0 38 f6 78 40
       4.30903 2.823584 -4.9589033 3.890028

arith.constant1 f4 [26]
000000 33 6d 35 40 15 71 0d 40 81 98 8a c0 f7 7c be bf
       2.83479 2.210027 -4.331116 -1.4881886
000010 ef f6 22 c0 63 a8 0c 41 18 86 04 41 00 65 66 bf
       -2.5463216 8.79111 8.282738 -0.89997864
000020 04 79 c2 40 1d ff 06 c0 a0 3a 55 40 6c ec c9 40
       6.0772724 -2.1093209 3.3317032 6.31011
000030 ae 9a d5 be f3 cd af 3f 5e f6 3a 40 92 59 5d c0
       -0.41719574 1.3734726 2.921287 -3.458592
000040 a0 9d 5b 40 b7 04 82 40 a8 7d e3 40 d6 20 1f 40
       3.4314957 4.0630755 7.109089 2.4863791
000050 a2 33 d7 40 3b 0f a0 40 9d d2 1f 41 2b bc 29 40
       6.725053 5.001859 9.988919 2.6521099
000060 d9 73 d6 bf 92 8d 1e 41
       -1.6754104 9.909563

arith.constant2 f4 [40]
000000 6f dc d7 bd 62 00 07 3d ee 04 af bd a1 b6 17 be
       -0.10540091 0.03295935 -0.08545862 -0.14815761
000010 67 ee 81 bd 05 17 3e 3d fe 1f ea bb e5 b3 de bc
       -0.063443 0.046408672 -0.007144927 -0.02718539
000020 f2 cc 01 be 1a 3f a6 bd 8d 48 a0 bd 54 cc 82 bd
       -0.12675837 -0.081175044 -0.07826338 -0.06386629
000030 31 ef 08 3e a4 48 34 be 07 31 9e bd e3 11 9f bd
       0.13372494 -0.17605835 -0.07724195 -0.077670835
000040 d0 5c db bd 6f 4d fd bd 05 0f d2 3c 95 c9 19 bd
       -0.10711062 -0.12368285 0.025641927 -0.03754576
000050 42 4f 9b bd f3 74 a3 3c f4 c3 29 bd f2 c0 3f 3d
       -0.075834766 0.019953227 -0.04144664 0.046814866
000060 d8 5d 80 3b 35 33 67 bc 33 39 1b 3c a9 43 98 bd
       0.003917437 -0.01411133 0.009474087 -0.0743478
000070 64 44 df bd 69 03 c4 bd cc 67 9c 3d 0c fe 32 be
       -0.10901716 -0.09570963 0.07636985 -0.17479724
000080 f6 bb 88 bd 70 5d 67 bd 1b 5c 6e bc aa 5c 87 bd
       -0.06676476 -0.056485593 -0.014548327 -0.06609471
000090 d9 ff 3f 3c 0b 62 3f be 6e 84 db 3c ad 33 89 3c
       0.011718714 -0.18689744 0.026796546 0.016748274

sequential_1/dense_1/MatMul f4 [40, 84]
000000 ff 4b ee 3d 13 d8 58 bb 00 9a 1f 3e 36 71 40 3e
       0.11635589 -0.0033087775 0.1558609 0.18793187
000010 31 69 89 3d c7 e6 9e 3d e0 78 f7 bd 3c d9 14 3e
       0.06709517 0.07758861 -0.12083602 0.14535993
000020 50 98 da bd c8 5e a0 bd 29 c9 41 bc 9e 5d b4 3d
       -0.106735826 -0.07830578 -0.0118277455 0.088069186
000030 27 38 13 be 2e b2 1d 3e ba 30 c0 3d 14 35 af 3e
       -0.14376889 0.15400001 0.09384294 0.34220183
000040 60 aa cb 3d 4e b5 07 3e 82 5f 6e 3d 47 2a 38 3d
       0.09944606 0.13252756 0.058196552 0.044962194
000050 4b 31 09 be 84 c6 cb bd e0 23 97 3d 8d d0 d9 bd
       -0.1339771 -0.09949973 0.073798895 -0.10635481
000060 cb e5 23 be 2f b0 58 bd e2 7b 71 bd 03 06 98 3d
       -0.16005628 -0.052902397 -0.058956034 0.07423022
000070 9e b9 36 bc 67 c1 a9 bc 82 7e 43 be 6a a2 5c bc
       -0.011152653 -0.020722104 -0.19091228 -0.013466457
000080 b3 7c d3 bd b9 33 3f be e0 37 1f bd 4a d3 47 3e
       -0.10326519 -0.18672074 -0.038871646 0.19514194
000090 a0 7f 59 be 9d 1f 55 bd bd 3d be 3d 50 b7 37 be
       -0.21240091 -0.052032102 0.092891194 -0.17941022
0000a0 97 20 8e 3d d2 5b 47 be 83 8e a1 3d 13 69 d7 3c
       0.0693981 -0.1946862 0.0788851 0.02629522
0000b0 13 14 3c 3c 74 59 d4 3d fe d1 d2 bd 0f 30 1b 3e
       0.011479395 0.10368624 -0.10293959 0.15155052
0000c0 8f 9c 06 be 19 a2 b3 3d 9f a5 be 3d 6b 48 85 be
       -0.1314566 0.08771152 0.093089335 -0.26031813
0000d0 b3 4a 28 3e 3a 31 67 bb a8 b8 94 3c 11 15 53 3e
       0.16434745 -0.0035277144 0.018154457 0.20613505
0000e0 0f 2f 56 bd c1 97 f8 3d f7 41 43 be 7c 97 5b bc
       -0.052290972 0.1213832 -0.19068132 -0.013402816
0000f0 d7 36 e5 3c 7a 2e ed bc 4c 69 09 3e a9 dc ae 3b
       0.027980251 -0.028952826 0.13419074 0.0053363633
000100 4d f6 0a be e2 b7 d9 bd 02 d5 10 3e 9e ca 05 be
       -0.13570519 -0.10630776 0.14143756 -0.13065574
000110 82 1f 0d 3e 59 85 cf 3d cf 3d c9 bd a0 ce 70 3e
       0.1378155 0.10132856 -0.09826242 0.23516321
000120 bc f6 82 be b5 ae 31 3e cc 5a 13 3d 06 99 a8 3e
       -0.25578868 0.17351802 0.035975263 0.32929248
000130 f5 32 05 3e b3 30 32 be 5c 9e 95 3e 35 ba 87 be
       0.1300772 -0.1740139 0.2922238 -0.26509252
000140 df da 53 3e 95 eb 79 bc 8f fa da 3d 54 69 70 be
       0.20688961 -0.015253921 0.106923215 -0.2347768
000150 a6 dd e7 bd f8 59 38 bd 39 7d ba bd a0 90 48 be
       -0.11321573 -0.045007676 -0.091059156 -0.1958642
000160 be 3b ef bc 23 48 2e 3d 0a 33 91 3d e1 1a 7b be
       -0.029203292 0.042549264 0.07089813 -0.24521972
000170 38 8a 2d 3e a9 a0 65 3b fb 12 61 3d 65 43 bd bd
       0.16947258 0.0035038388 0.05494974 -0.0924137
000180 85 52 5b be c7 76 c5 bd c8 a9 a5 bd b8 b0 e6 3c
       -0.21418197 -0.096417956 -0.08089024 0.028160438
000190 70 45 f2 be 07 a9 81 3e 1c ac b2 bd f5 0f ec bc
       -0.47318602 0.2532427 -0.087242335 -0.028816203
0001a0 c4 41 24 be 21 4d 88 bd 3b dc 35 bc 9c 26 1d 3e
       -0.16040713 -0.06655336 -0.01109987 0.1534676
0001b0 f2 95 4f be 95 d2 15 3e ab 76 28 3e 2c 58 09 be
       -0.20272043 0.14631112 0.16451518 -0.13412541
0001c0 74 1d 64 3e f5 f8 7e bc 0d 86 29 bd 76 8a fc bd
       0.2227686 -0.015562286 -0.041387606 -0.12331097
0001d0 38 78 1d bd 4b ad 41 3d 9b e4 3f 3d e8 13 7e 3a
       -0.038444728 0.047284406 0.046848875 0.00096922973
0001e0 89 bc 16 be d9 33 b8 3d fe 8a 0a be 5d 95 f5 bd
       -0.14720358 0.08994264 -0.13529584 -0.119913794
0001f0 84 4a 32 3d d5 b4 a5 bd 13 84 b1 bd 8f 66 13 3c
       0.043528095 -0.080911316 -0.08667769 0.00899662
000200 30 e7 0b bd eb af e8 bd e7 21 b1 3d f4 f7 5f bd
       -0.034156024 -0.11361679 0.086490445 -0.054679826
000210 a0 6c 4d be f2 c3 9a be 35 75 48 3e 63 58 95 be
       -0.20060968 -0.3022762 0.19575961 -0.29168996
000220 1d bf 48 be 5f c8 24 bd 85 da ee bd 21 f1 58 bd
       -0.19604154 -0.04023015 -0.11662773 -0.052964333
000230 52 4f 0a be 33 b9 84 3e b3 b6 5d bd 90 c6 14 3e
       -0.13506821 0.25922546 -0.054129314 0.1452887
000240 14 8d 51 3d 81 17 6e be 1d 69 69 3e a4 76 dc bd
       0.051159933 -0.23251154 0.22794004 -0.107648164
000250 d8 e1 7a 3e f0 dc 38 be 00 3c d9 bd 55 27 9c bd
       0.24500215 -0.18053031 -0.10607147 -0.076246895
000260 83 fb 45 3e 45 79 fa bd 57 3d 87 bd 40 81 f2 bd
       0.19334225 -0.122301616 -0.066034965 -0.11841059
000270 9e e4 ed 3d c8 b2 35 3d dc c2 81 3c 92 e1 3d bb
       0.11615871 0.044359952 0.015839987 -0.0028973562
000280 97 74 dd 3d 37 49 cc bd be 49 97 bc 1d 59 5a 3d
       0.108132534 -0.09974902 -0.01846778 0.05330764
000290 c5 a8 11 bc 6b 94 b0 bb 76 eb 9d 3d 82 2f 8b 3e
       -0.008890335 -0.0053887866 0.07710926 0.27184683
0002a0 5a b9 0e 3e 75 75 84 be 91 0c bd bd a5 72 cd 3d
       0.13937894 -0.25870863 -0.092309125 0.10031632
0002b0 ff c9 11 3d ef da 14 3e fc 70 97 3d 18 52 16 be
       0.03559303 0.14536642 0.07394597 -0.14679754
0002c0 08 63 22 3e 99 76 3d 3e 59 64 64 3d a7 c4 29 be
       0.1585809 0.18502273 0.05575976 -0.16578923
0002d0 d5 ed 42 3e a3 a2 16 bd 1a 80 1a bd d3 38 5c bd
       0.19036038 -0.036776196 -0.037719823 -0.05376513
0002e0 c2 c7 95 bd 2a 31 6b 3e 35 aa 33 3d 1a 7c 63 be
       -0.073134914 0.22967973 0.043863494 -0.2221531
0002f0 94 fe 6c be 5c 8a 3e be 2e 6a 6c be 3b 70 b2 3c
       -0.23143989 -0.18607467 -0.2308738 0.021782031
000300 c5 c1 c8 3d 0e cc 02 3e d8 bf 4c 3e cd 61 6e be
       0.098025836 0.12773153 0.19995058 -0.23279496
000310 cd 13 fa bd fb f3 db bc c6 b7 2a 3e 05 e4 79 bd
       -0.12210808 -0.026849737 0.16671667 -0.061008472
000320 19 7a 9a 3d a5 97 0c be c3 3c 36 3c 87 ce b6 3d
       0.075428195 -0.13729723 0.011122885 0.08926111
000330 8d 60 aa 3d 75 43 ba bd f2 63 19 be 76 86 51 bd
       0.08319197 -0.09094898 -0.14979532 -0.051153623
000340 69 48 6a 3c 4c 3e 55 3d b0 a3 97 bd 2c 2a 5c 3e
       0.0142994905 0.052061364 -0.07404268 0.21500462
000350 19 82 e8 bd 43 6a 67 3d 83 fd 97 bd f2 52 6b 3e
       -0.11352939 0.056497823 -0.074214004 0.2298086
000360 b2 02 15 be a7 4a 1e 3e 61 12 b3 3d 1f 7b 7a bd
       -0.1455181 0.15458165 0.0874374 -0.061152574
000370 70 42 cf 3c 5d a8 80 be 44 e0 ce 3c 49 2b 74 be
       0.025300235 -0.2512845 0.025253423 -0.23844637
000380 23 6c e5 3b de 01 e8 3c ee 86 ac 3d d8 7a be bd
       0.0070014163 0.028321203 0.08424173 -0.09300774
000390 2d 28 0e 3e 68 b4 a2 be 61 30 6a 3e 7b 55 67 3e
       0.13882513 -0.31778264 0.22870018 0.22591202
0003a0 e6 94 f6 bd 66 75 b1 3e 26 6b eb bc e8 28 8a 3e
       -0.12040119 0.3465988 -0.028737616 0.26984334
0003b0 7a 78 3e 3e 24 a5 a2 be 3b e2 23 3e 1f ea 92 bd
       0.18600646 -0.31766617 0.16004269 -0.07173561
0003c0 e1 6f 0a bd 07 0d 33 3d 9d f0 21 be ed e6 89 3e
       -0.033798102 0.043713596 -0.15814443 0.26933995
0003d0 7a 82 31 3d 7c 2e 86 be 83 56 23 3e bc 6d c9 3d
       0.043337323 -0.2620734 0.1595097 0.09835383
0003e0 b2 38 5d 3d e0 24 19 be b9 b5 af be c2 08 dd ba
       0.054009147 -0.14955473 -0.3431833 -0.0016863572
0003f0 db b5 40 3d 7b 55 cc bd 64 e6 34 be 3c 52 f1 3d
       0.04704843 -0.099772416 -0.17666012 0.11783263
