models/left_right_swap_29th_Jan.tflite (tflite, 7336 bytes, 4 tensors)

arith.constant f4 [40]
00000000: 6a40 d83c 0000 0000 0000 0000 0000 0000
00000010: 0000 0000 9da8 b83c 3324 49bc 8bba 9ebb
00000020: 4731 5abc 0000 0000 48d4 6f3d 8293 4d3d
00000030: 0000 0000 3e7f 5f3d 0000 0000 0000 0000
00000040: 0000 0000 0000 0000 0000 0000 e357 3dbc
00000050: 728a 5d3c 0000 0000 de5f c3bb 9131 ffbb
00000060: 0000 0000 5225 ce3b 4554 03bc 805f a73a
00000070: 35a5 01bc 1820 8a3c e1f1 d63d e116 46bc
00000080: 0000 0000 b1ec 333c 6670 3e3d 1604 93bc
00000090: a79b b2bc 0000 0000 0000 0000 d5ee 2ebd
0.026397903 0.0 0.0 0.0 0.0 0.022541339 -0.012276697 -0.004844015
-0.013317413 0.0 0.058552057 0.050189503 0.0 0.054564707 0.0 0.0
0.0 0.0 0.0 -0.011556598 0.0135217775 0.0 -0.005962356 -0.007787891
0.0 0.00629107 -0.008015697 0.001276955 -0.007912924 0.016861007 0.104953535 -0.012090416
0.0 0.010981725 0.04649391 -0.017946284 -0.021802736 0.0 0.0 -0.042708237

arith.constant1 f4 [26]
00000000: b85e eebf eec6 c8bf 563c 0a41 a424 95c0
00000010: 5e8d 53c0 317c 82c0 cb30 a5c0 257d 07c0
00000020: baae 91c0 0b5a 7bc0 43d6 9cc0 a410 8ec0
00000030: a183 90c0 9449 84c0 1ef7 c6bf 688a 8ec0
00000040: ca69 bcc0 ab85 b8c0 a5b0 a8c0 b312 dbbf
00000050: 110c 67c0 01fc b2c0 de53 40c0 af34 43c0
00000060: 556b 64c0 a7ae 2ac0
-1.8622656 -1.5685709 8.63973 -4.6607227 -3.3055034 -4.07766 -5.162206 -2.1170132
-4.552579 -3.9273708 -4.901155 -4.4395313 -4.516068 -4.1339817 -1.5544164 -4.4543953
-5.8879137 -5.766317 -5.271563 -1.7115082 -3.6101115 -5.593262 -3.0051188 -3.0500906
-3.569051 -2.66691

tfl.pseudo_qconst i1 [26, 40]
00000000: 1781 e149 c8e8 d526 2358 ff04 1a0c 22a3
00000010: dee9 c4d8 102d 0f0d 31f5 4de7 3206 f3ff
00000020: 3e02 0d04 e5d5 62e9 0feb d06f de0b c825
00000030: ed71 fbfb 54ff 18a3 afd4 81fc 0b3f 2b02
00000040: 48e9 fbeb 0b0e eec0 50f4 fe02 efbe 55fe
00000050: da6a 798c 7bb0 4ec9 a899 eae6 81e7 9662
00000060: 6870 7563 e991 a999 b124 a823 94df 187c
00000070: 8317 e7dd 275f 9c4a 0f8a f13a 86e8 fe1c
00000080: 047a 0a04 24ff 7481 abd5 e8ce 1056 132c
00000090: 4bfb 02f2 05fb e7d9 4afa 0f0f fc8d 730a
000000a0: 0dc7 a118 d726 cd22 fa2f 0108 7015 5681
000000b0: d9cb d8ce 137e 04ec 39fb 53f9 2b19 0000
000000c0: 43f7 070f d1ed 3211 06ab b361 9b19 fe1c
000000d0: 6c50 1304 6b16 7f83 97ed a4f7 0e5d 1d10
000000e0: 44ec 46e4 1513 f4af 1e05 0bfc ecba 30fd
000000f0: 1581 e511 b101 e235 f958 011c 731a 5ec8
23 -127 -31 73 -56 -24 -43 38
35 88 -1 4 26 12 34 -93
-34 -23 -60 -40 16 45 15 13
49 -11 77 -25 50 6 -13 -1
62 2 13 4 -27 -43 98 -23
15 -21 -48 111 -34 11 -56 37
-19 113 -5 -5 84 -1 24 -93
-81 -44 -127 -4 11 63 43 2
72 -23 -5 -21 11 14 -18 -64
80 -12 -2 2 -17 -66 85 -2
-38 106 121 -116 123 -80 78 -55
-88 -103 -22 -26 -127 -25 -106 98
104 112 117 99 -23 -111 -87 -103
-79 36 -88 35 -108 -33 24 124
-125 23 -25 -35 39 95 -100 74
15 -118 -15 58 -122 -24 -2 28
4 122 10 4 36 -1 116 -127
-85 -43 -24 -50 16 86 19 44
75 -5 2 -14 5 -5 -25 -39
74 -6 15 15 -4 -115 115 10
13 -57 -95 24 -41 38 -51 34
-6 47 1 8 112 21 86 -127
-39 -53 -40 -50 19 126 4 -20
57 -5 83 -7 43 25 0 0
67 -9 7 15 -47 -19 50 17
6 -85 -77 97 -101 25 -2 28
108 80 19 4 107 22 127 -125
-105 -19 -92 -9 14 93 29 16
68 -20 70 -28 21 19 -12 -81
30 5 11 -4 -20 -70 48 -3
21 -127 -27 17 -79 1 -30 53
-7 88 1 28 115 26 94 -56

sequential_1/dense_1/MatMul i1 [40, 84]
00000000: add3 13e9 c0a5 b4bc cae8 01d4 3a60 ea58
00000010: 5594 0003 0348 45d9 febc c81e fc52 1611
00000020: c84b e5ff 7fc7 efac aca4 dc0f 68fa 04a4
00000030: ad54 5161 cb1d c5ad 38e9 bddb 31df aee2
00000040: 28ff e926 48aa a732 1f15 5e04 49e8 1ad5
00000050: efef e3b4 dd1b e983 de98 dd0d 58a2 645d
00000060: ba5e f49d 237c 0ad8 081f a563 341c 2f8c
00000070: 31f6 2060 2bbd 7f51 9558 aa74 7d57 1ad2
00000080: ee88 d80f 89af a815 fb69 8264 81f5 3306
00000090: 7007 0605 9a9d fb3a b25a fec3 aa69 4c70
000000a0: f1d5 585f 1372 c0ce 66f8 1a9f 30c8 631e
000000b0: 7fe4 38f4 5f66 7b22 168f 7cd9 33fa cebf
000000c0: 3e7b c847 1b51 66c8 9fc0 e7ac faa3 b05f
000000d0: 9b83 e8e1 ebf9 d507 307d f311 afcb db2b
000000e0: 63bf 3ed0 e6ff 41e4 5dde 52e1 fc36 bbce
000000f0: f836 41df ad96 0f83 dd39 7fa9 a6ab 787c
-83 -45 19 -23 -64 -91 -76 -68
-54 -24 1 -44 58 96 -22 88
85 -108 0 3 3 72 69 -39
-2 -68 -56 30 -4 82 22 17
-56 75 -27 -1 127 -57 -17 -84
-84 -92 -36 15 104 -6 4 -92
-83 84 81 97 -53 29 -59 -83
56 -23 -67 -37 49 -33 -82 -30
40 -1 -23 38 72 -86 -89 50
31 21 94 4 73 -24 26 -43
-17 -17 -29 -76 -35 27 -23 -125
-34 -104 -35 13 88 -94 100 93
-70 94 -12 -99 35 124 10 -40
8 31 -91 99 52 28 47 -116
49 -10 32 96 43 -67 127 81
-107 88 -86 116 125 87 26 -46
-18 -120 -40 15 -119 -81 -88 21
-5 105 -126 100 -127 -11 51 6
112 7 6 5 -102 -99 -5 58
-78 90 -2 -61 -86 105 76 112
-15 -43 88 95 19 114 -64 -50
102 -8 26 -97 48 -56 99 30
127 -28 56 -12 95 102 123 34
22 -113 124 -39 51 -6 -50 -65
62 123 -56 71 27 81 102 -56
-97 -64 -25 -84 -6 -93 -80 95
-101 -125 -24 -31 -21 -7 -43 7
48 125 -13 17 -81 -53 -37 43
99 -65 62 -48 -26 -1 65 -28
93 -34 82 -31 -4 54 -69 -50
-8 54 65 -33 -83 -106 15 -125
-35 57 127 -87 -90 -85 120 124
