models/left_right_swap_single_letters_29th_Jan.tflite (tflite, 7344 bytes, 4 tensors)

arith.constant f4 [40]
00000000: 0000 0000 9a7b a4bc e063 dcbc ee83 ea3c
00000010: 3631 79bc 1fc0 cd3c 9087 3ebd b772 223d
00000020: e90e 183d 6102 883d 8779 d63d 35e2 b5bd
00000030: 4304 29bc 8688 d7bc 277d 19bc 7aa2 46bc
00000040: bb12 e53c 2ba7 2d3d bac8 73bc 0000 0000
00000050: 201b 71bc af06 fe3c 0000 0000 903a 203d
00000060: 870c c43d 3652 403d ed45 97bc e2c8 edbd
00000070: 58c0 c1bd 188c 503d 963c 963b 0908 4d3e
00000080: 0000 0000 6406 75bd 0bf9 f9bd eb2d 843d
00000090: d57b 2dbd e207 a1bc aabc 6c3d 9c67 12be
0.0 -0.020078469 -0.026903093 0.028627362 -0.015209487 0.025116025 -0.046516 0.03966018
0.037123594 0.06641079 0.10472398 -0.08881036 -0.0103159575 -0.026310217 -0.009368218 -0.012123698
0.027963033 0.042395752 -0.0148794 0.0 -0.01471594 0.031009046 0.0 0.03911835
0.09572702 0.046953402 -0.01846596 -0.11610581 -0.09460515 0.050914854 0.004584859 0.20022596
0.0 -0.059820548 -0.12205704 0.06454071 -0.042354424 -0.01965708 0.05779711 -0.14297336

arith.constant1 f4 [26]
00000000: 2835 b2c0 90f3 22c0 167a b740 ce63 85c0
00000010: eebb 89c0 9875 07c0 3551 8fc0 6d23 03c0
00000020: a0ee 1a40 a64b 93c0 c4a8 9ac0 604e f23f
00000030: 32db 8ac0 d48a 11c0 032d 6bc0 b5c9 76c0
00000040: 431c 5ec0 2d74 b4c0 ea64 7ec0 3854 37c0
00000050: 75a4 9dbf 5394 c440 74e8 5ac0 0205 9ac0
00000060: 4e87 6dc0 a632 aac0
-5.568989 -2.5461159 5.733653 -4.168433 -4.3041906 -2.1165524 -4.478663 -2.0490372
2.4208145 -4.6029844 -4.8331013 1.8930168 -4.3392572 -2.2740984 -3.6746223 -3.8560612
-3.470475 -5.6391816 -3.9749093 -2.8645153 -1.2315813 6.143106 -3.4204378 -4.8131113
-3.7113833 -5.3186827

tfl.pseudo_qconst i1 [26, 40]
00000000: 91ac fe03 3ffd 0103 0604 fcff 8505 77ff
00000010: 0407 00ce 2544 9401 fb05 fa07 03fe 06fe
00000020: 7f02 0fff 08ff 0405 a0ab ff00 3ef4 f905
00000030: 0109 f8ff 9dfe 61fc 04fb ff94 fd33 8104
00000040: 020c 02fe 01fe 0600 54ff 01fc fb00 0702
00000050: 0e45 0508 df07 fdf4 06e4 f304 72f0 b6fb
00000060: 14d9 0d38 d8cd 510c 1efa ede3 01fa f00b
00000070: 81fa 12e3 fde4 eef7 8bca fbff 3d06 0605
00000080: fdf8 0700 99fd 3efb ff02 fe86 171c 8100
00000090: 0401 f707 0100 ff08 70fe 0c04 f501 0300
000000a0: 9f92 0402 5df9 0906 0513 0902 ad01 55fd
000000b0: fef3 fdaf 1c17 a105 f90b f401 0100 07fc
000000c0: 7f06 02f1 1006 0207 8104 fe01 17fd ff02
000000d0: 0003 04fe 82ff 68ff 04f7 0186 eff0 b8ff
000000e0: ff06 02f7 03fe 01fb 4b06 0503 0a04 05ff
000000f0: 81c5 0102 64f7 0306 0304 0304 8c06 3e03
-111 -84 -2 3 63 -3 1 3
6 4 -4 -1 -123 5 119 -1
4 7 0 -50 37 68 -108 1
-5 5 -6 7 3 -2 6 -2
127 2 15 -1 8 -1 4 5
-96 -85 -1 0 62 -12 -7 5
1 9 -8 -1 -99 -2 97 -4
4 -5 -1 -108 -3 51 -127 4
2 12 2 -2 1 -2 6 0
84 -1 1 -4 -5 0 7 2
14 69 5 8 -33 7 -3 -12
6 -28 -13 4 114 -16 -74 -5
20 -39 13 56 -40 -51 81 12
30 -6 -19 -29 1 -6 -16 11
-127 -6 18 -29 -3 -28 -18 -9
-117 -54 -5 -1 61 6 6 5
-3 -8 7 0 -103 -3 62 -5
-1 2 -2 -122 23 28 -127 0
4 1 -9 7 1 0 -1 8
112 -2 12 4 -11 1 3 0
-97 -110 4 2 93 -7 9 6
5 19 9 2 -83 1 85 -3
-2 -13 -3 -81 28 23 -95 5
-7 11 -12 1 1 0 7 -4
127 6 2 -15 16 6 2 7
-127 4 -2 1 23 -3 -1 2
0 3 4 -2 -126 -1 104 -1
4 -9 1 -122 -17 -16 -72 -1
-1 6 2 -9 3 -2 1 -5
75 6 5 3 10 4 5 -1
-127 -59 1 2 100 -9 3 6
3 4 3 4 -116 6 62 3

sequential_1/dense_1/MatMul i1 [40, 84]
00000000: e403 9707 205c f1b2 9141 7919 64ad a037
00000010: 9c57 0afb 4d2e 6e0f 2023 bd79 0f20 b4cb
00000020: c67f d9cb 440d e86e caec 04c9 4a7e d665
00000030: e838 2ede 93fb d539 b05d 431d e0e6 6a66
00000040: d921 900f d41b 1962 c1c4 056b 469c c23a
00000050: ea36 1ee0 59b1 6b92 d348 af55 583f 56d1
00000060: 4a55 9827 881a 8813 db1c 8d7e 6e50 cd9a
00000070: 477e 1e64 0755 6f15 567e 6f55 8684 53c0
00000080: 7f9f aa89 f948 e2a3 1d39 2631 6272 a9ff
00000090: a48b 5376 33e8 f6f0 a86d b20f df2d d9f0
000000a0: 399b c762 075d aedf 2509 4b8b aabc fa99
000000b0: b59f a913 29f0 1a1a f61d 58a9 ecd9 d3ff
000000c0: 2d1c 73e0 0732 f230 cff2 e630 7f15 21b5
000000d0: 1a9a bc07 e9b4 ffbb fdfc f51a b332 fce2
000000e0: 2ec3 1dd0 fae7 1314 e043 16b0 b9f9 0736
000000f0: c7f2 aff5 0827 c911 0009 b008 3140 2eae
-28 3 -105 7 32 92 -15 -78
-111 65 121 25 100 -83 -96 55
-100 87 10 -5 77 46 110 15
32 35 -67 121 15 32 -76 -53
-58 127 -39 -53 68 13 -24 110
-54 -20 4 -55 74 126 -42 101
-24 56 46 -34 -109 -5 -43 57
-80 93 67 29 -32 -26 106 102
-39 33 -112 15 -44 27 25 98
-63 -60 5 107 70 -100 -62 58
-22 54 30 -32 89 -79 107 -110
-45 72 -81 85 88 63 86 -47
74 85 -104 39 -120 26 -120 19
-37 28 -115 126 110 80 -51 -102
71 126 30 100 7 85 111 21
86 126 111 85 -122 -124 83 -64
127 -97 -86 -119 -7 72 -30 -93
29 57 38 49 98 114 -87 -1
-92 -117 83 118 51 -24 -10 -16
-88 109 -78 15 -33 45 -39 -16
57 -101 -57 98 7 93 -82 -33
37 9 75 -117 -86 -68 -6 -103
-75 -97 -87 19 41 -16 26 26
-10 29 88 -87 -20 -39 -45 -1
45 28 115 -32 7 50 -14 48
-49 -14 -26 48 127 21 33 -75
26 -102 -68 7 -23 -76 -1 -69
-3 -4 -11 26 -77 50 -4 -30
46 -61 29 -48 -6 -25 19 20
-32 67 22 -80 -71 -7 7 54
-57 -14 -81 -11 8 39 -55 17
0 9 -80 8 49 64 46 -82
